model/weights/final_model_6_usinglstm_0_usingfulls_1.pth (torch, 333762 bytes, 21 tensors)

sensor_encoder.encoder.0.weight f4 [128, 100]
000000 3f 30 db bc 07 45 27 be 07 38 44 bd e9 e2 c8 3d
       -0.026756404 -0.16334926 -0.047904994 0.09808905
000010 54 33 4c bd 22 99 06 3e 72 9c 84 3d 1f 84 1c be
       -0.049853638 0.13144353 0.06475152 -0.15284775
000020 35 03 24 be db 70 5b bd 24 ce 2e be 21 ff ba bc
       -0.16016848 -0.053574424 -0.17070824 -0.022826733
000030 36 fc e4 bd d8 d2 26 be ef ad 38 bd 3c 6e 08 3d
       -0.11180918 -0.16291368 -0.04508775 0.033308253
000040 ea 8d 20 be bf a2 70 bd 85 b7 5d 3d ea 8a 58 3d
       -0.15679136 -0.058748957 0.054130096 0.052866854
000050 c5 bb 1b be 9f d9 00 be 91 64 2b 3d 10 e6 d2 bd
       -0.15208347 -0.12583016 0.041843954 -0.10297787
000060 03 44 1a bd 1e 47 f5 bc 2a 9e 3f 3a 40 cb 99 3d
       -0.037662517 -0.029941138 0.000730964 0.0750947
000070 33 d8 0e be 10 33 01 3e 21 39 e8 bd 2e 1b 5c bb
       -0.13949661 0.12617135 -0.113390215 -0.0033585536
000080 ae c4 91 bc 0c ba 57 bd 5b 55 ce 3d 46 62 fd 3d
       -0.01779398 -0.052667663 0.10074874 0.1237226
000090 e8 e3 71 bd 46 4b 25 be b6 50 29 be fc de fe bd
       -0.05905524 -0.16141996 -0.16534695 -0.12444875
0000a0 8d bb a3 3d fc b8 e0 3d 97 b2 fe bd ac f1 05 be
       0.07994757 0.10972783 -0.12436407 -0.13080472
0000b0 84 bd f8 bd 10 ea 04 be fb 46 97 bd d6 67 5f 3d
       -0.12145522 -0.12979913 -0.07386585 0.054542385
0000c0 0a b0 87 3d dc 55 18 be be 71 7f bc a3 44 b7 3c
       0.06625374 -0.14876503 -0.015591083 0.022371596
0000d0 4f c2 f2 bd 5d ed cc bc 7e 4a f9 3d 9e d6 5d 3d
       -0.11853468 -0.025015527 0.121724114 0.054159753
0000e0 03 1b 4c bd 04 53 73 3b 3e d7 88 3b 31 c3 a8 bd
       -0.049830448 0.0037128339 0.0041760495 -0.08240355
0000f0 f7 39 55 bd f0 fe ac 3d 52 9a 09 be 3b 3b f3 3d
       -0.052057233 0.08447063 -0.13437775 0.11876532
000100 56 bc 97 3b 52 2a 08 be df b7 ce bd 98 20 23 be
       0.0046306057 -0.13297394 -0.100936644 -0.15930402
000110 e0 37 09 bd 83 66 d6 bd 1d 1c 22 bd 6f 29 0c be
       -0.033500552 -0.10468771 -0.039577592 -0.1368768
000120 11 88 ae bc 8b 3d ff 3d 43 95 6d 3d 69 85 ef bd
       -0.021305116 0.1246291 0.058003675 -0.11695368
000130 0a 22 cf bd 7b 2b 33 3d 18 e4 93 bb b4 ab 01 be
       -0.10113914 0.043742638 -0.004513275 -0.12663156
000140 26 83 01 3e 6e 0f ee 3c a1 5f 1d be 83 af b1 3c
       0.12647685 0.029060092 -0.15368511 0.021690136
000150 9a 34 b8 bd e5 b5 1d be 6d fb ea bd bf 7a d2 bc
       -0.08994408 -0.15401419 -0.11473737 -0.025693296
000160 6f 5a fd bd 4a 70 05 be 6e 53 1c 3e 72 e6 03 be
       -0.123707645 -0.13031116 0.15266201 -0.12880877
000170 db 05 24 bd 17 d5 1e be 4c 2e a2 3d 36 09 1b be
       -0.040044647 -0.15510975 0.07918987 -0.15140232
000180 dc 15 59 bd b1 fb 8e bd 8b 1f 22 bd 6e b8 c5 bd
       -0.052999362 -0.069816 -0.039580863 -0.09654318
000190 0e 0c a1 bc cf 93 3e bc 24 b3 01 be 6e ef e7 bc
       -0.019659068 -0.01163192 -0.12665993 -0.028312411
0001a0 ec 4b b2 bc a7 d6 8a bd 52 8e 79 3d 3e e7 32 bd
       -0.021764718 -0.06779223 0.060926743 -0.04367756
0001b0 7e 59 cf 3d 15 b7 7b bd af 11 e3 3d 37 1a 12 be
       0.10124491 -0.061453898 0.11087357 -0.14267813
0001c0 2b d6 b3 bd 43 8c 19 bd b3 b9 95 3d 9e 51 89 3d
       -0.08781084 -0.03748728 0.0731081 0.0670502
0001d0 15 c8 87 bd 6b a2 1e 3c ce ea 50 bd 0a f0 13 be
       -0.066299595 0.009682278 -0.051005177 -0.14447036
0001e0 90 7c 0d 3e c6 ed 21 3a 9c 69 ec 3d dc 26 0c 3e
       0.13817048 0.00061770936 0.11543581 0.13686699
0001f0 16 a8 0f bd b2 bf 1a be 81 cd 26 bb 13 7c 18 be
       -0.03507241 -0.15112188 -0.002545208 -0.1489108
000200 20 42 83 bd 52 36 75 bc 00 30 27 be c9 25 1a be
       -0.06409097 -0.014966564 -0.16326904 -0.15053476
000210 f5 40 83 bd ac 34 fa 3a e5 8f 21 bd 07 6e 0e 3e
       -0.06408874 0.0019089184 -0.03944387 0.1390916
000220 09 be 1a 3d 32 1f 20 bd ce 99 c0 3c 7d 6d 65 bd
       0.037778888 -0.03909225 0.02351084 -0.05601262
000230 e6 e3 d6 3d 5b 32 d3 3d cd 42 df bd 6b 46 c6 3d
       0.10492687 0.10312339 -0.10901413 0.096814
000240 5f bc df 3d 42 bc 4f 3b 70 30 21 3e d5 56 1e be
       0.10924601 0.0031697904 0.15741134 -0.15462811
000250 de 8b 0f 3e 3f 3a cb 3d 00 a7 1f 3e 9e 52 85 3d
       0.14018199 0.09923219 0.15591049 0.065098986
000260 62 5e 77 3d 63 ae 02 3e a5 4b 5c 3d 69 ea f4 3d
       0.060392745 0.12761836 0.053783078 0.11958773
000270 ee fa fb 3d 0d ed 0c 3e c1 d4 18 3d 9f 10 c9 3d
       0.123037204 0.13762303 0.037312273 0.09817623
000280 0f 61 be 3d 21 a1 00 3e 09 aa 8d 3d ae 55 1b 3d
       0.09295856 0.12561466 0.06917197 0.037923507
000290 f9 a1 ae 3d 82 a3 cb bd f6 b4 02 be 0c 9b 08 bd
       0.085269876 -0.09943296 -0.12764344 -0.03335099
0002a0 08 35 23 be d8 7d db 3c d7 51 32 3d 93 07 27 be
       -0.15938199 0.026793405 0.04353508 -0.16311483
0002b0 a7 77 50 3b 1c 63 be 3d cd 7c 5d bd 47 cb 11 be
       0.00318096 0.09296247 -0.054074097 -0.142377
0002c0 50 60 10 3e 74 ba e8 3d 18 33 d1 3c 11 f7 0b be
       0.1409924 0.11363688 0.025537059 -0.13668467
0002d0 8a c5 e8 bc 84 9e bb bd b2 ec 24 3e c5 82 66 3d
       -0.028414506 -0.09161094 0.16105917 0.056277055
0002e0 a4 5b aa bc e6 87 92 3d 32 67 15 3c f2 d1 ad 3d
       -0.02079565 0.07154827 0.009118842 0.084873095
0002f0 2a 54 13 3e 11 b0 11 3e c8 b7 98 bc 8c e8 18 3b
       0.14387575 0.1422732 -0.018642321 0.0023331968
000300 3b da 18 3e ee 89 5a 3d e0 22 e8 bc 7e ac a1 3d
       0.14926998 0.053354196 -0.028336942 0.078942284
000310 52 86 7c bd df 65 53 bd c2 ec d3 bd 40 a8 98 bd
       -0.061651535 -0.051610824 -0.10347892 -0.07453966
000320 81 32 50 3c ee ff 11 bc 7e 6e 0e be 50 f3 46 3b
       0.012707354 -0.008911116 -0.13909337 0.0030357428
000330 b1 dc 9b bd 61 a6 32 3d b9 83 cb 3d 85 6c 23 be
       -0.07610453 0.043615703 0.099372335 -0.15959366
000340 d4 fd 93 bd e5 db fe 3d ca c5 be 3d 10 6e 69 bd
       -0.07226148 0.12444285 0.09315069 -0.05698973
000350 53 06 17 3d 3f d8 fd 3d 58 69 1b 3e 0f d9 03 bd
       0.036871266 0.12394761 0.15176904 -0.032189425
000360 5f 6f f9 bd 09 30 f0 bc 25 f5 22 3e 25 b6 02 3e
       -0.121794455 -0.02931978 0.15913828 0.12764795
000370 ae 02 f9 3d 92 f5 9c 3b 59 6d 0b 3e 50 4c 1a 3e
       0.12158714 0.0047900164 0.13615932 0.15068173
000380 36 c1 ed 3d cd 5e e8 bd 51 29 24 be b4 08 f7 bd
       0.11609118 -0.11346207 -0.16031386 -0.12062207
000390 04 5b 5a 3d 11 e9 32 3d 40 75 ee 3d c4 86 21 be
       0.053309456 0.0436793 0.116434574 -0.15774065
0003a0 28 8c 1f be 87 cb 0c 3c d0 77 c0 bc 0b 88 b7 3c
       -0.15580809 0.008593447 -0.023494631 0.022403738
0003b0 07 02 e2 bd 71 91 b3 3d 92 4b 51 3c 1d c4 0c 3e
       -0.11035543 0.08767975 0.012774365 0.13746686
0003c0 fd 81 04 be 6a 30 ec 3d 97 99 3f 3c db 47 11 3e
       -0.12940212 0.11532672 0.0116943335 0.14187567
0003d0 ca 4a 97 bd 82 aa 95 3d a2 60 8d bd 95 47 03 be
       -0.07387312 0.073079124 -0.06903197 -0.12820275
0003e0 eb f1 f7 3d 5f 06 cb bb 49 f8 f1 3d f9 74 42 3d
       0.12106689 -0.006195828 0.11814935 0.047474835
0003f0 78 1d c7 3d 64 f7 1a be 10 fe c4 3b 1d c8 16 be
       0.097224176 -0.15133435 0.006011732 -0.14724775

sensor_encoder.encoder.0.bias f4 [128]
000000 c7 23 96 3c 9f 79 0c 3c 0b a3 51 3c e4 56 88 3b
       0.018327607 0.008573919 0.01279522 0.004160749
000010 07 8b 58 b9 ae 28 09 3c 72 6d 8d 3c e9 47 1a bb
       -0.00020651157 0.008371515 0.017264102 -0.0023541397
000020 b3 ec 6b 3c 3b 31 2f 3c 3e 33 08 3c fe 61 dd 3b
       0.014399695 0.01069289 0.008312998 0.0067560663
000030 1e a3 a2 3b ed f6 ad 3c 9c 07 bb 3c f5 0b 8c 3c
       0.0049632927 0.021235907 0.022830777 0.017095545
000040 ab 36 5f 38 8f cf e1 3b 12 0d 56 3c 1b be cd 3b
       5.3218257e-05 0.006891198 0.01306464 0.006278766
000050 41 30 a6 3c 31 1a 79 3c c7 e9 a5 3b f7 f4 17 39
       0.020286681 0.015203998 0.005063269 0.00014491739
000060 16 ad 8f 3c 0d 8e e6 3b b3 52 ab 3b d9 f5 17 ba
       0.017538588 0.0070359767 0.0052283644 -0.0005796827
000070 9f cf 74 3a 48 7f dc 3b c6 0f 2d 3c bb a9 53 3c
       0.0009338799 0.0067290403 0.010562843 0.012918885
000080 44 d8 47 3c 9c 9d 66 3c e3 b4 16 3c ef 67 55 3c
       0.012197558 0.014075663 0.0091984 0.013025268
000090 34 20 7b 3c a3 59 02 3c f1 d6 05 3c 16 7a 56 3c
       0.015327502 0.007955941 0.008168922 0.013090631
0000a0 5c f1 72 3c 15 31 57 3c d5 6a 93 3c b3 71 7f 3c
       0.014828052 0.013134261 0.017995277 0.015591073
0000b0 7e f8 00 3c ad 90 85 3c 39 de 49 3c 01 91 a7 3c
       0.007871745 0.016304338 0.012321048 0.020454885
0000c0 25 d8 3c 3c 9f 86 77 3c be a6 0d 3b bc 7e c8 3b
       0.011526142 0.01510778 0.0021614279 0.0061186235
0000d0 7d 33 3d 3c 57 20 68 3c 0d 40 36 3c e8 7d 86 3b
       0.01154792 0.014167867 0.011123669 0.0041043647
0000e0 14 21 05 3c 83 b0 58 3c 65 22 9d 3c fb e3 a4 3b
       0.008125562 0.013225677 0.01918144 0.00503206
0000f0 3f 8a c2 3c f7 d0 30 3c df 74 5b bb 78 3f 43 3c
       0.023747561 0.010792009 -0.0033486409 0.011916988
000100 3b 92 8c 3c 56 06 7c 3c 64 95 1e 3c 55 8d 4a 3c
       0.017159572 0.01538237 0.009679172 0.012362798
000110 c5 96 37 3c 9b 6b c0 3b c1 d5 b6 3c be 17 c2 ba
       0.01120538 0.0058722026 0.022318723 -0.0014808101
000120 b7 9d 0a 3c e8 b8 24 bb 42 87 4e 3c 2d 88 d9 3b
       0.008460454 -0.0025134627 0.01260549 0.006638548
000130 4c 8b 38 3c 83 ad 26 3c 5a 8e 5d 3c dc 09 1d 3c
       0.01126368 0.010173204 0.013522709 0.00958487
000140 ec 82 94 3b 38 c5 39 3c cc ae 44 3a 27 a0 af 3c
       0.0045322087 0.0113385245 0.00075028534 0.021438671
000150 e5 53 2d 3c b0 e4 81 3c 21 3d 22 3c d6 ad 8a 3a
       0.010579084 0.015856117 0.00990227 0.0010580372
000160 88 cc 14 3c 10 4d 60 3c cf d6 0d 3c 86 39 fb 3b
       0.009081967 0.013690248 0.008657171 0.0076667694
000170 5c 83 f7 3b c2 ba 19 3c 26 03 58 3c 57 38 90 3c
       0.007553501 0.009382905 0.013184344 0.01760499
000180 1d 6d 89 3c ff 5b c1 3c 54 77 71 3c 20 d2 54 3c
       0.016775662 0.023603437 0.014737923 0.012989551
000190 c9 15 68 3c 3c 0b 13 3c ed cc 93 3c 98 2a 02 3c
       0.01416535 0.008974846 0.018042052 0.007944725
0001a0 ea f3 9e 3c 0f 77 c3 3b ce fa 35 3c bc 52 b6 3b
       0.019403417 0.0059651206 0.01110716 0.005564062
0001b0 90 3b b3 3c 43 df 2b 3c d5 83 75 3c 58 cb e9 3b
       0.021878988 0.010490241 0.0149850445 0.007134836
0001c0 fc b3 9e bb 18 f1 5b 3c 7d 83 a2 3b e2 6b 5e 3c
       -0.004843233 0.01342418 0.0049595223 0.013575526
0001d0 fa 04 90 3c 71 bf 2c 3c 7d ba 3f bb f5 ec ec 3b
       0.017580498 0.01054369 -0.0029255443 0.007230396
0001e0 fb c2 7e 3c a5 f8 58 3c a2 7c 44 3c ee 41 59 3c
       0.015549417 0.013242875 0.011992605 0.013260348
0001f0 3f ed 90 3c 3a c6 42 3c 8a 88 0d 3c 32 e5 9e 3c
       0.017691253 0.011888081 0.0086385105 0.019396398

sensor_encoder.encoder.2.weight f4 [128]
000000 b2 c1 80 3f da a7 7f 3f 59 70 80 3f 63 1a 80 3f
       1.0059111 0.99865496 1.0034286 1.0008053
000010 91 19 80 3f 67 a0 7f 3f 24 f8 80 3f ec 75 80 3f
       1.0007802 0.9985413 1.0075727 1.0035987
000020 a6 fd 80 3f 1a 18 7f 3f d3 ce 7f 3f b5 27 80 3f
       1.0077407 0.9964615 0.99924964 1.0012118
000030 41 c1 7f 3f 89 fa 7f 3f d1 98 80 3f 1b ac 80 3f
       0.9990426 0.9999166 1.0046636 1.0052522
000040 24 31 7f 3f 47 25 81 3f cb ed 80 3f 5c 6f 7e 3f
       0.9968436 1.0089501 1.0072569 0.9938867
000050 59 c6 81 3f aa 18 80 3f 5f a6 7f 3f be d0 7f 3f
       1.0138656 1.0007527 0.9986324 0.9992789
000060 82 26 80 3f 47 b2 80 3f 2a 6e 80 3f b6 63 80 3f
       1.0011752 1.0054406 1.0033619 1.0030429
000070 09 81 80 3f 2b 8a 80 3f 1c df 7f 3f 7e d4 7f 3f
       1.0039378 1.0042166 0.9994981 0.9993361
000080 bc 28 80 3f a1 8b 80 3f b0 51 7f 3f 7d 2f 7f 3f
       1.0012431 1.0042611 0.9973402 0.99681836
000090 6c 77 80 3f 02 b3 80 3f e8 a2 7f 3f 06 15 80 3f
       1.0036445 1.0054629 0.9985795 1.0006416
0000a0 f6 9f 80 3f 89 06 80 3f b3 d7 80 3f 8a bb 80 3f
       1.0048816 1.0001994 1.0065826 1.0057232
0000b0 77 6e 80 3f c4 ad 7f 3f 73 0e 80 3f 12 d6 80 3f
       1.0033711 0.9987452 1.000441 1.0065329
0000c0 44 67 80 3f e8 b5 80 3f 54 b3 7d 3f d8 35 80 3f
       1.0031514 1.0055513 0.9910176 1.0016432
0000d0 54 ae 7e 3f c0 48 80 3f ca 9c 80 3f c5 89 7f 3f
       0.99484754 1.0022202 1.0047848 0.99819595
0000e0 1c e7 80 3f af ce 80 3f ed e2 80 3f e2 84 80 3f
       1.0070529 1.0063075 1.0069252 1.0040553
0000f0 60 83 80 3f 81 8c 80 3f eb e7 7f 3f 73 3f 81 3f
       1.0040092 1.0042878 0.99963254 1.0097488
000100 63 f9 80 3f e3 58 80 3f 91 89 7e 3f 1e aa 80 3f
       1.0076107 1.0027126 0.9942866 1.0051916
000110 01 54 80 3f 42 64 80 3f 81 d7 80 3f 64 0f 7e 3f
       1.0025636 1.0030596 1.0065767 0.99242234
000120 5d de 80 3f 2f f7 82 3f a0 7b 80 3f 7e 38 80 3f
       1.006786 1.0231684 1.0037727 1.001724
000130 e7 74 80 3f 6c 60 80 3f 32 e5 7f 3f 36 fc 80 3f
       1.0035676 1.0029426 0.999591 1.0076969
000140 87 0b 7e 3f af 29 7f 3f 74 a4 80 3f fa 85 80 3f
       0.9923634 0.9967298 1.0050187 1.0040886
000150 2a b7 80 3f 43 a1 81 3f 3c ac 7e 3f 93 98 80 3f
       1.0055897 1.0127338 0.9948156 1.0046562
000160 1a b7 81 3f 13 54 80 3f 72 ca 80 3f 69 47 7f 3f
       1.0134003 1.0025657 1.0061781 0.9971834
000170 a8 32 81 3f 84 75 80 3f 77 4c 80 3f e7 2d 80 3f
       1.0093584 1.0035863 1.0023335 1.0014008
000180 d7 e3 81 3f 52 97 80 3f 17 71 7f 3f 45 5c 80 3f
       1.0147656 1.0046179 0.99781936 1.0028158
000190 2a 1b 80 3f 6c 78 7f 3f c1 49 81 3f fd 00 80 3f
       1.000829 0.99793124 1.0100633 1.0000302
0001a0 94 65 7f 3f 9e 26 80 3f 37 4e 80 3f ec 79 80 3f
       0.9976437 1.0011785 1.0023869 1.0037208
0001b0 63 e3 80 3f a4 aa 7f 3f 05 b1 7f 3f ab 50 80 3f
       1.0069393 0.9986975 0.99879485 1.0024618
0001c0 c7 fc 7f 3f f6 1e 80 3f 71 b6 7f 3f d5 e1 81 3f
       0.9999508 1.0009449 0.9988776 1.0147043
0001d0 3d 38 81 3f d7 a9 80 3f 36 1e 80 3f 26 65 7f 3f
       1.0095288 1.0051831 1.000922 0.99763715
0001e0 48 7a 80 3f a1 34 7e 3f e3 33 80 3f f5 cc 7e 3f
       1.0037317 0.99299055 1.0015835 0.9953149
0001f0 3f 01 80 3f e9 15 81 3f 9d 73 80 3f ba e9 80 3f
       1.000038 1.0084811 1.0035282 1.0071328

sensor_encoder.encoder.2.bias f4 [128]
000000 8f 2d 5e bb f6 38 d6 b8 bf 52 db 3a c5 ad cc 39
       -0.0033901667 -0.00010214925 0.0016733034 0.0003903938
000010 51 bd 86 ba 4e ff 48 bb e6 ed e9 3b c0 fd 63 bb
       -0.0010279809 -0.0030669752 0.0071389554 -0.0034788698
000020 d9 fd fb bb 86 8c f7 3a 41 16 b4 3b ed 93 01 bb
       -0.007690173 0.0018886484 0.005495817 -0.0019772009
000030 75 d8 06 bb e0 53 9a 3b 64 13 3b 3c 28 41 5c bb
       -0.0020575796 0.0047097057 0.011418197 -0.0033608172
000040 4b 1c 21 bc 16 ae 1b bc a6 75 43 3a fc ae d3 3b
       -0.009833406 -0.009501955 0.00074561907 0.0064600687
000050 57 0d 37 3c f3 61 0f 3b 10 b9 18 bb 0f 88 65 ba
       0.011172614 0.002187845 -0.0023303665 -0.0008755931
000060 e2 44 f8 39 07 30 df bb f6 b7 7a bb 69 38 4b bb
       0.00047353568 -0.006811145 -0.0038256622 -0.0031008965
000070 2a 38 7a bb a2 13 58 3b bd c8 73 b9 0a 31 60 3b
       -0.003818045 0.0032970686 -0.00023249067 0.0034208917
000080 81 f5 f2 b9 d5 3f 41 ba df ce 66 3b d3 68 7a 3a
       -0.00046340752 -0.00073718774 0.003521852 0.0009552363
000090 ee ac b8 3b c3 44 d2 bb b5 74 da ba 25 d3 96 3a
       0.005635849 -0.0064168884 -0.0016666861 0.0011507018
0000a0 37 ca 26 bb b4 a2 35 38 e8 8c 99 bb f8 d2 80 bb
       -0.002545012 4.3305292e-05 -0.004685987 -0.0039313994
0000b0 6b ba 87 3b d4 03 c5 3b 29 76 02 3b 86 84 ef bb
       0.004142096 0.0060124192 0.0019906855 -0.007309499
0000c0 a6 6a 4b bb 8c 00 84 3a e3 61 06 bc 20 09 ab bb
       -0.003103891 0.0010070964 -0.008202049 -0.0052195936
0000d0 d9 a5 35 3b 31 2e a9 3b 2c f2 8c bb bb e8 7f bb
       0.002771726 0.005162977 -0.00430133 -0.003904863
0000e0 78 79 1b bb a8 f2 f8 3a a9 4d 1e 3c 7b d7 63 bb
       -0.0023723524 0.0018993216 0.00966207 -0.0034765888
0000f0 01 27 6f bb e2 ac 16 bb d2 5f 89 ba 37 31 39 bc
       -0.0036491754 -0.002299123 -0.0010480827 -0.011303238
000100 d7 68 1b 3b 97 f3 c3 ba 2e 44 18 3b f9 65 a3 bb
       0.0023713612 -0.0014949915 0.0023233998 -0.0049865213
000110 56 3a 4f 3b b9 2e 26 bb c9 09 f7 bb 19 fd f9 3b
       0.0031620464 -0.0025357439 -0.0075390083 0.0076290485
000120 ce a7 bb ba 64 72 be bc a7 83 9d 3b f6 0c ab 3b
       -0.0014316977 -0.023247905 0.004806954 0.005220051
000130 35 b6 93 3b 2a f8 4e bb a0 53 95 3b 31 2e 1d 3c
       0.0045078048 -0.0031581023 0.004557088 0.009593532
000140 6c 1e 65 3b dd 62 17 3b 27 30 44 bc c2 0f 8b bb
       0.003496076 0.0023099699 -0.011974371 -0.004243822
000150 bb 29 2e 3b fe c9 01 3c c0 ee 8e ba 7d 1c 82 bb
       0.0026575166 0.007921694 -0.0010904893 -0.003970681
000160 50 00 53 bc 2f 2f 85 3b 39 21 1f bc 64 6d ac 3b
       -0.0128784925 0.0040644626 -0.009712511 0.005262064
000170 28 d4 2d bc f8 19 2f 3c 1f cf f1 3a bf 30 00 b9
       -0.010609664 0.010687344 0.0018448568 -0.0001222519
000180 4d 57 87 3c 85 d3 8f ba d1 96 85 3b 75 a6 1a 3c
       0.01652112 -0.0010973072 0.0040768166 0.0094391005
000190 d0 48 f8 3b 59 90 9a ba 4c 19 25 3b 49 84 f5 38
       0.0075770393 -0.0011792287 0.002519208 0.000117071504
0001a0 dd 0e 44 3b a4 1e 71 bb 46 0e cf bb ea 3d 21 ba
       0.0029916086 -0.0036791945 -0.00631884 -0.00061508885
0001b0 96 f5 72 3b 86 69 9c b9 ec e7 cd 3b c2 25 19 bb
       0.003707265 -0.0002983326 0.0062837508 -0.0023368453
0001c0 be 3d cb ba 8d 6e a8 b9 2b f9 94 3a a1 05 58 bc
       -0.0015506072 -0.00032125824 0.0011365762 -0.013184936
0001d0 a1 b2 18 3c 43 7b 9f bb 19 48 1a ba 94 2b 47 ba
       0.009319932 -0.004866989 -0.0005885377 -0.0007597741
0001e0 a7 cb 75 ba db 84 77 3b e8 be cc ba 08 66 8f 3b
       -0.0009376355 0.0037768397 -0.0015620859 0.0043761767
0001f0 b1 54 25 38 09 be 19 3c 93 c8 87 3b 91 cb e9 bb
       3.941794e-05 0.009383687 0.0041437834 -0.0071348627

sensor_encoder.encoder.3.weight f4 [64, 128]
000000 8f 49 26 3e f7 a8 ba bb 6e fe 2e be 41 36 f4 3d
       0.16238998 -0.0056964117 -0.17089245 0.119244106
000010 b5 ca fd 3d 89 4b 74 3d 8a 68 99 3d 49 bb 05 3d
       0.12392179 0.05964235 0.07490642 0.032649312
000020 0b 46 9a 3d e4 e6 b6 3d da 12 32 3e af 9e 0c be
       0.07532891 0.08930758 0.17390004 -0.13732408
000030 85 b7 9c bd 37 74 01 3e 21 a7 6b 3d d8 b6 ba 3c
       -0.07652191 0.12641989 0.057532433 0.022792265
000040 b1 dc 1c 3d 59 31 c9 bc 7b 3b 45 bd 48 a4 48 3d
       0.038296405 -0.024559664 -0.048152428 0.048984796
000050 41 ae 92 3d 5c a4 01 be 44 eb df 3d aa 06 e6 3d
       0.071621425 -0.12660354 0.10933545 0.1123174
000060 69 2a ba bd 80 ad bf bd 18 4a eb bd 54 8b eb 3d
       -0.0909012 -0.093592644 -0.11488742 0.11501184
000070 67 93 71 3d 18 e4 1f 3e 06 cd 3d 3d b7 4d 17 bd
       0.058978464 0.15614355 0.046338104 -0.03693935
000080 8b 5d ce 3d 6f 73 b2 bb b3 a9 0d be 76 2e 1a be
       0.10076436 -0.0054458897 -0.13834266 -0.15056786
000090 ac 82 f9 bd 9a 21 5a 3d 94 e3 dd 3b e7 e2 0f 3e
       -0.12183127 0.0532547 0.006771514 0.140514
0000a0 08 ad 64 bd e5 7d 92 3d a7 d8 0e be 60 31 93 bc
       -0.055829078 0.07152919 -0.13949834 -0.01796788
0000b0 81 b6 f8 3c 59 c7 63 bd 02 0b a4 3d 74 5c 7a bd
       0.030360462 -0.055610035 0.08009912 -0.061123326
0000c0 af 33 f4 bd 31 3c cd bc d3 fb b7 3c f2 ee bb 3d
       -0.1192392 -0.025053116 0.022458946 0.091764346
0000d0 e4 bc 19 be a5 5b 04 be 58 80 30 bd 5f 3e 35 3e
       -0.15013462 -0.12925585 -0.04309115 0.17699574
0000e0 b8 1c 2d 3e 55 d5 dd bd a2 23 f8 bd 05 04 d0 bc
       0.16905487 -0.108317055 -0.121161714 -0.025392542
0000f0 36 a1 24 be 6f 7a 22 bd 82 a3 b3 bd cc e7 2a be
       -0.16077122 -0.039667543 -0.08771421 -0.16689986
000100 56 d2 b5 bd 41 73 a4 bb e3 88 bf 3d b7 16 07 3e
       -0.08878009 -0.005018622 0.09352281 0.13192259
000110 7d f7 db bd 6b a6 95 bd e9 a0 dc 3c c5 c2 19 be
       -0.10740564 -0.07307132 0.026932197 -0.15015705
000120 01 76 0c 3e 3f b2 60 bd 98 da 52 3d 01 93 83 bd
       0.1371689 -0.05485749 0.051478 -0.06424523
000130 c0 16 03 3e b9 13 1d bd e0 ac 5e bd bc f9 8e 3d
       0.12801647 -0.038348887 -0.054364085 0.06981227
000140 1f 00 f5 3d 3a 44 ec 3d 63 fa f9 bd 89 1a 7f bc
       0.11962914 0.11536451 -0.122059606 -0.015570291
000150 e6 3f 17 be 84 89 82 3d 6e 04 d7 3d 6e 66 dd bd
       -0.14770469 0.06373885 0.10498892 -0.108105525
000160 42 b4 13 be 86 10 c3 bd 20 1e be 3b 77 42 d3 3d
       -0.14424232 -0.09524636 0.005801931 0.103154115
000170 fb 51 93 bc 8e 88 1d 3d ba 9b af bd 21 84 81 3d
       -0.017983427 0.038460307 -0.08574624 0.0632403
000180 9d 1d 0c 3e 29 b6 86 bd 83 9e 42 bd 2d 26 14 3e
       0.13683172 -0.06577713 -0.04751445 0.14467688
000190 21 f3 b4 3d d5 24 42 bd 5b 33 2a 3e 96 6b 76 bc
       0.08835436 -0.047398407 0.16621153 -0.015040299
0001a0 e6 e1 84 3c 05 4d d0 bd 19 72 85 3d e6 f9 21 be
       0.016220998 -0.1017094 0.06515903 -0.15817985
0001b0 66 bc 33 3e 09 2c b2 bd 75 2a ca 3d dd 2d 09 3e
       0.17552337 -0.08699805 0.09871379 0.13396402
0001c0 d4 34 c7 bd 92 8e 26 3e 1a ee 91 bc 4f ae 3d 3d
       -0.09726873 0.16265324 -0.017813731 0.04630881
0001d0 86 21 e8 bc af da 26 be 19 10 c1 3d af 60 11 3e
       -0.028336298 -0.16294359 0.094268985 0.14197038
0001e0 36 68 4d 3d 21 0d f7 3d 81 7b 8a 3c ac 4d 0f 3e
       0.05014821 0.12063051 0.016904594 0.13994473
0001f0 fa e6 20 be b0 bf c0 bd 8a f5 0d 3e 89 93 cb 3d
       -0.1571311 -0.094115615 0.13863197 0.099402495
000200 e5 07 08 3e 23 37 1c be 78 e6 f9 3d 88 d7 10 3e
       0.13284262 -0.15255408 0.122021616 0.14144719
000210 4e f0 27 3d f9 0a 78 3d ad 5b 36 be 8e 9c 07 bc
       0.041000657 0.06055734 -0.17808409 -0.008277072
000220 65 d2 18 3d f5 ac e6 bd 56 a1 11 3e 27 24 e7 bd
       0.037310023 -0.11263458 0.14221701 -0.112861924
000230 9b 5b 03 3e e2 b6 ef bc 9c b5 3a ba 2d 88 54 bd
       0.12827913 -0.02926201 -0.0007122399 -0.05188768
000240 b2 25 a0 3d ad 4e 0d be 12 c5 c5 3d 8a 8a 19 be
       0.0781969 -0.13799544 0.09656729 -0.14994255
000250 6c e7 d3 bd d3 25 34 be 1d 7b 01 be f8 c1 e6 bd
       -0.103468746 -0.17592554 -0.1264462 -0.11267465
000260 6a 58 28 3e b8 5a 27 3d 36 0c 83 3c 15 b1 e8 bd
       0.16439977 0.040858 0.015997034 -0.11361901
000270 de 16 16 bd e8 9b 01 be 97 c7 9a bb b9 80 b2 bd
       -0.0366429 -0.1265713 -0.0047235 -0.08715958
000280 2d a4 fe bd 38 e3 5c 3c 63 8c b4 3c ee c3 d1 3b
       -0.12433658 0.013481908 0.022039598 0.0064015305
000290 2d 94 8b bd 82 ea ac 3c 85 ad df 3d 23 4d 10 3e
       -0.06815372 0.021107916 0.10921768 0.14091925
0002a0 e3 51 32 3d aa be 86 3a 31 9e 9b bd 8c 72 9d 3d
       0.043535125 0.0010280211 -0.07598532 0.07687864
0002b0 ca 32 89 bd 6d 07 7d bd 05 1d f2 bd 4a 5a 2d 3d
       -0.0669914 -0.06177466 -0.11821941 0.042322434
0002c0 20 35 0f 3e d0 05 a3 3d 25 a6 38 bb aa f2 e3 3d
       0.1398511 0.07960093 -0.0028175202 0.11130269
0002d0 ca ac 21 be a0 b4 fe 3c 86 47 52 bd ac 56 81 bd
       -0.1578857 0.031091988 -0.05133774 -0.063153595
0002e0 49 5c 0b be 53 35 1c be a3 3d b6 bc 13 8c 76 3d
       -0.13609423 -0.15254717 -0.022246188 0.06019218
0002f0 ac e3 f5 bd b2 fc d4 3d 53 e6 22 3e 75 ee 19 be
       -0.120063156 0.1039976 0.15908174 -0.1503237
000300 09 22 b5 3d 2b 49 bd 3d 12 ce 24 3e 12 a3 ae bd
       0.08844382 0.09242471 0.16094235 -0.08527197
000310 77 a1 3d bd fe f5 d9 bd ea 55 35 3e 97 66 cb 3a
       -0.046296563 -0.106426224 0.17708555 0.0015518245
000320 61 1d 2b be 5f 1e 92 bd d5 d0 3e 3d c0 7e 8b 3d
       -0.16710426 -0.07134699 0.046585876 0.06811285
000330 f3 80 17 3e 05 51 30 bd 24 99 9a 3c 7b 95 02 bd
       0.14795284 -0.043046016 0.018871851 -0.031880837
000340 64 ba 2d be 45 4d bd bd a5 2b 5f bc 5e 28 29 3e
       -0.16965634 -0.092432536 -0.0136212455 0.16519305
000350 27 97 0c bd 60 81 41 bc a2 6a 16 3e 1c 88 0b be
       -0.034323838 -0.011810631 0.14689115 -0.1362614
000360 99 7f c8 bc 92 e2 24 be 58 12 b1 3d 17 e5 1a be
       -0.024474906 -0.16102055 0.08646077 -0.15126453
000370 a4 0f 23 3e 51 8f f0 bd 0a ed c0 bd 3e 04 26 3e
       0.15923935 -0.117460854 -0.094202116 0.16212556
000380 79 e2 13 be 22 58 76 bd bd af 9e 3d ad c7 a7 3d
       -0.14441861 -0.060142644 0.07748363 0.08192382
000390 b2 55 d4 3d 9f e5 02 be 9d 8e 19 be 42 94 ab bd
       0.103679076 -0.12782906 -0.14995809 -0.08377887
0003a0 2a ca 60 bc 6e f9 d4 bd 79 a9 94 bd 86 da 59 bd
       -0.013720075 -0.103991374 -0.07258887 -0.053186916
0003b0 ea a9 2e bd 7d f9 78 bd bc 22 8e bd 81 ca 9a bd
       -0.04264251 -0.060784806 -0.06940219 -0.07558156
0003c0 47 45 50 3d d1 2a 1b 3e 3b bb db bd 46 79 a8 bd
       0.050847318 0.15153052 -0.10729071 -0.08226256
0003d0 3e 51 9f 3b b0 4b 45 bd 32 ff 25 be 85 98 f5 bd
       0.0048619797 -0.048167884 -0.1621063 -0.119919814
0003e0 a7 13 28 bd 51 4a b2 bb a5 02 44 3d 5c ad 08 3d
       -0.041034367 -0.005440988 0.047854085 0.033368453
0003f0 e4 50 a4 bd f3 87 27 3d 1a 67 66 3d 3d 5e 1e 3e
       -0.08023241 0.040901136 0.05625067 0.15465637

sensor_encoder.encoder.3.bias f4 [64]
000000 4d 29 79 3c fd ad ce 3b e1 22 3a 3c 94 0c 7a 3c
       0.015207601 0.006307362 0.011360855 0.015261788
000010 63 0d c2 3a 4c cd 6f 3c d0 89 5e 3c 58 43 cf 3a
       0.0014805015 0.014636349 0.013582662 0.0015812917
000020 f8 1a 6f 3c 1a 8d 82 3c 7c ee d7 bb bf 4c a5 3b
       0.014593832 0.015936423 -0.006589709 0.0050445492
000030 ba ce 29 3c bc 0b 50 3c 40 20 5f 3c 09 4e 5a 3c
       0.010364229 0.01269811 0.013618529 0.013324269
000040 ce 47 51 3c 28 0c b3 3c c5 02 db 3b 6e a2 1d 3c
       0.012773467 0.021856382 0.0066836798 0.009621246
000050 6d 6a 84 bb 2a 4c 30 3c a2 b7 80 3c ef 43 56 3c
       -0.0040410073 0.010760346 0.015712563 0.01307772
000060 79 74 26 3b 54 1c 10 3c 43 c6 eb 3b 3b 61 0b 3c
       0.0025399013 0.008795816 0.0071952655 0.008507068
000070 82 dc 96 3c e9 18 6d 3c 6b 8e 0e 3c 06 20 8f 3c
       0.018415693 0.014471271 0.008700947 0.017471325
000080 b4 21 2b 3c 26 52 11 3c 29 96 ce 3c 5b 59 6d 3c
       0.010445047 0.008869683 0.025218086 0.014486636
000090 f2 1a f0 3b f8 3b 3a 3c e9 41 2b 3c c5 62 ad 3b
       0.007327431 0.011366837 0.010452726 0.0052913153
0000a0 02 2a 1f 3c b3 d8 35 3c db 9e 7c 3c 9d d5 4d 3b
       0.009714605 0.011099028 0.0154187335 0.003140784
0000b0 e8 2b b3 3c e6 73 1c 3c 03 cb 84 3c 32 9c 7f 3c
       0.021871522 0.009549117 0.016210085 0.015601205
0000c0 3e 2c 92 3c a7 14 23 3c 42 24 9a ba f6 08 72 3c
       0.017843362 0.009953654 -0.0011760073 0.014772644
0000d0 d5 e2 01 3c 8a 02 13 3c eb e5 29 3c 53 c2 66 3c
       0.007927616 0.008972773 0.010369758 0.014084416
0000e0 51 d6 c9 3c 6e f9 9d 3b 71 c2 00 3c 52 cb 9c 3b
       0.024638327 0.004820994 0.007858858 0.00478498
0000f0 6e dc 55 3b 45 f5 8d 3c e4 cc 78 3c f4 d1 fd 3b
       0.0032632607 0.017328868 0.0151855685 0.0077459756

pose_encoder.encoder.0.weight f4 [128, 3]
000000 c8 9c 42 3d 25 35 ea 3c 52 fa 99 bd 91 3a 12 be
       0.0475128 0.028589794 -0.07518448 -0.14280154
000010 9d 50 2e 3e b1 6a 86 3d ea c4 9c 3d 41 1a 95 3d
       0.17022939 0.065633185 0.07654746 0.07280398
000020 e1 d8 04 be 24 df 24 be 2e 81 ed 3d 65 d1 51 3d
       -0.12973358 -0.16100746 0.11596905 0.051225085
000030 0d 3f 16 3e ee 9a 39 be da 45 8b bd a8 86 5a bd
       0.1467249 -0.18125507 -0.068004325 -0.053351074
000040 8e 05 88 3d 33 48 10 be 6a fc 92 3d 62 66 40 be
       0.066416845 -0.14090042 0.071770504 -0.18789056
000050 d8 f7 eb 3c d0 b5 3b 3e a8 41 3b 3c c8 6d a1 bd
       0.028804705 0.18331075 0.011429228 -0.07882267
000060 de a2 54 be ba 07 1e be 02 50 d9 bc 57 2b 33 bd
       -0.20765254 -0.15432635 -0.026527409 -0.043742504
000070 58 78 43 be 4c 2a 25 be 18 c0 06 3e 58 4a c5 3c
       -0.19088876 -0.16129416 0.13159215 0.024083301
000080 19 1d b0 3d 88 bf e5 bd cd a9 f8 3d 52 2d 0e be
       0.085993 -0.11218172 0.12141762 -0.13884476
000090 9a e6 30 3e fc d4 2a be a5 da 77 3d 77 c8 c1 ba
       0.17275468 -0.1668281 0.06051125 -0.0014784475
0000a0 9a 20 af bd c4 49 0b be 6a 9a a0 bc 0a 9e 13 3d
       -0.0855114 -0.13602358 -0.01960488 0.03603939
0000b0 84 c3 11 be 09 b6 a5 bd 0c 68 ee bd 72 e8 b7 bc
       -0.1423474 -0.08091361 -0.11640939 -0.022449706
0000c0 b5 72 5a 3e e9 06 2f be df b8 1b be 5f 9f 32 be
       0.2133282 -0.1709248 -0.15207241 -0.17443608
0000d0 75 8b 42 be 02 dc e8 3d 98 5d e1 3c 83 de 54 be
       -0.18998511 0.11370088 0.02751045 -0.20788006
0000e0 c8 ca 1c bd 44 27 15 be 95 a6 b4 bc eb de 0b 3d
       -0.038279325 -0.1456576 -0.022052089 0.034148138
0000f0 9f 47 6a 3d 35 1b d8 3c 90 33 b4 3d e1 91 56 3d
       0.05719721 0.02638016 0.08798897 0.052385215
000100 ce 9d ce bd 79 d1 25 be 87 4a 2d bd ef e5 28 bc
       -0.100886926 -0.16193189 -0.042307403 -0.010308727
000110 c5 27 bd bd 71 0d 4b bd 19 5d 4a be bd ad 42 3d
       -0.09236101 -0.049573366 -0.19762076 0.04752897
000120 dd da 3c 3e 82 17 09 bd ba 48 82 3d b5 04 29 3e
       0.18442865 -0.033469684 0.06361528 0.16505702
000130 6c d4 27 3d ea a5 2b be 61 96 11 be 1f b1 fe 3d
       0.040974066 -0.1676251 -0.14217521 0.12436127
000140 1d e5 26 bd cf c2 e3 bd 2a 80 e1 3d cb ac 3f 3e
       -0.040745843 -0.11121141 0.110107735 0.18718259
000150 6c 18 5b be b8 c0 31 3e 9d d4 f8 3c e0 fe 20 3e
       -0.21396035 0.17358673 0.03037482 0.15722227
000160 e1 03 e1 3a a9 b4 50 be 12 c8 0b be ad c9 c0 bd
       0.0017167294 -0.20381416 -0.1365054 -0.094134666
000170 98 c5 22 3e 6a 98 99 bc 77 be 4d be 4c ba c5 3c
       0.15895689 -0.018749435 -0.20092188 0.024136685
000180 ce 59 2b 3e eb 7d 61 3d 16 73 bd bc 2c 7e 87 bd
       0.16733477 0.055051725 -0.023126166 -0.06615862
000190 19 00 23 be bc 25 54 3e 0b 38 55 be 95 93 fa 3d
       -0.15918006 0.2071752 -0.2082216 0.1223518
0001a0 74 d2 16 3c 86 4a 61 bd f8 70 a9 3d d2 c7 00 be
       0.009205449 -0.05500271 0.082735 -0.12576225
0001b0 7d d4 11 be d7 56 4b be 28 c9 31 bd d9 c6 bc bd
       -0.14241214 -0.19857346 -0.04340473 -0.09217615
0001c0 8b a7 dd bc 6d 46 0e 3e a9 52 1b 3e 90 e2 bb 3d
       -0.02705743 0.13894053 0.15168251 0.09174073
0001d0 c7 63 27 3e fa d7 0c 3e 4f 0e 0f be 2a 48 32 be
       0.16346656 0.13754264 -0.13970302 -0.17410341
0001e0 9c 98 e5 bd 23 c5 49 3e 4a 2e e1 bd 17 e1 ca bd
       -0.112107486 0.19704108 -0.10995157 -0.09906214
0001f0 9d d6 9e bd 49 6d e3 bc bd 46 3b 3e a0 c6 97 bd
       -0.07755778 -0.027762072 0.18288703 -0.074109316
000200 74 ff 4e be 8d 1f 54 be 1c b6 fa 3c 4c ab c3 3c
       -0.20214635 -0.2071516 0.030604415 0.023885392
000210 91 66 26 be e9 44 36 3d bd eb ec 3d b8 3a e5 3d
       -0.16250063 0.04449931 0.11568401 0.1119284
000220 39 36 47 3e db 69 1f 3e aa bb 9d bd 0c af d4 bd
       0.19454278 0.15567724 -0.0770181 -0.1038495
000230 46 c5 ef 3c bf 56 33 3e c5 d7 c6 3c 2e fc 2c be
       0.029268872 0.1751356 0.024272809 -0.16893074
000240 59 c2 40 3e 83 a7 54 3e d3 02 6a 3d 38 bd 8c 3d
       0.18824138 0.20767026 0.0571316 0.06872028
000250 23 9d 36 be 05 bf 9e 3d e8 3f 12 be 37 2f bf bd
       -0.1783338 0.07751278 -0.14282191 -0.093351774
000260 23 4a 10 3e d2 8e 96 bd c8 75 1d bd aa e2 e4 3d
       0.14090781 -0.073514596 -0.038442403 0.11176045
000270 17 37 dd bd bf e0 29 be 85 ec f4 bd cc ea d7 3d
       -0.10801523 -0.1658964 -0.11959175 0.10542831
000280 e1 4e 53 3e fc ac a1 bd a8 ee 10 be da d9 03 3d
       0.20635559 -0.07894322 -0.1415354 0.03219018
000290 d5 4a c5 bd 85 c3 47 be 17 45 ae bb 66 4b d5 bd
       -0.09633414 -0.19508179 -0.0053182947 -0.10414772
0002a0 8c 7b f5 bd 6d 83 2f 3e fc df a9 bd 31 df b3 3c
       -0.11986455 0.17139979 -0.08294675 0.021957012
0002b0 e7 4a 69 3d ab 71 dd 3c e4 79 16 3e 25 97 5c be
       0.056956198 0.02703174 0.14694935 -0.21542032
0002c0 d1 34 24 3e 2b 6d 9d bc 3c ac 16 be 32 da 27 be
       0.16035773 -0.019217094 -0.1471414 -0.16391829
0002d0 30 3c 0e 3e 73 fc 02 3e 19 cf 7d bc b2 e8 94 bd
       0.13890147 0.12791614 -0.01549127 -0.072709456
0002e0 97 9c 4d 3c 43 66 2b 3d 65 79 1e be e5 62 18 bb
       0.012549541 0.04184557 -0.15475996 -0.0023252305
0002f0 3f f9 4f 3e 78 20 34 bc 04 16 8b bd bb 5e 4f 3e
       0.20309924 -0.010994069 -0.067913085 0.2025098
000300 8a 33 59 bd 38 78 3e 3e 43 b8 f1 3c 8d 20 a5 bd
       -0.053027667 0.18600547 0.029506808 -0.08062849
000310 b5 eb 17 be 48 3b 2f 3e da 5e bb bd 46 50 db 3d
       -0.14836009 0.17112458 -0.09148951 0.1070867
000320 60 40 eb bd c1 32 3d be e8 79 11 be 9e 9d a6 bd
       -0.11486888 -0.18476392 -0.1420666 -0.08135532
000330 1a 4e 14 3e 41 02 41 3a 9b c3 ba bd 48 9a 9b bd
       0.14482918 0.00073627016 -0.0911934 -0.07597786
000340 69 17 1e 3e 8a 04 3b be 44 cd fb 3b ba b8 61 3d
       0.15438618 -0.1826345 0.0076843817 0.05510781
000350 e4 7f be bd e0 02 4f 3e 50 3f a9 3d b4 cb 55 be
       -0.09301737 0.2021594 0.08264029 -0.20878488
000360 ef 12 08 3d 4c 28 45 bd cb 13 19 3e 00 48 3b 3e
       0.03322118 -0.048134133 0.14948957 0.18289185
000370 35 97 82 3c c3 be d8 bd 92 e8 59 3d d0 cb 12 3e
       0.015941242 -0.1058326 0.053200312 0.14335561
000380 ea 15 39 be 7c 48 4a be cb 67 10 3d 70 4e 47 3e
       -0.18074766 -0.19754213 0.035255235 0.19463515
000390 30 80 15 3e cd 8f 12 be 40 c9 51 be 13 4f ec bd
       0.14599681 -0.14312668 -0.20486927 -0.1153852
0003a0 85 bd 94 3d 8e c1 ee 3b f1 33 89 3d e1 ab 02 3e
       0.072627105 0.007286257 0.0669936 0.12760879
0003b0 c7 04 44 be a3 f3 33 3e f4 71 4e 3d 5d 69 53 bd
       -0.19142447 0.17573409 0.050401643 -0.051614154
0003c0 71 06 e7 bc b2 18 04 bc e9 47 e8 3d eb 8c 4d be
       -0.028201314 -0.008062528 0.11341841 -0.20073287
0003d0 d6 fe 32 bd 28 62 56 3e 73 9d 12 bd 24 ec 1f 3d
       -0.04370006 0.20935881 -0.035794687 0.03904356
0003e0 42 82 29 be 6f 36 a9 3c 9f 19 07 3e ff 90 db 3d
       -0.16553596 0.020655839 0.13193367 0.10721015
0003f0 43 f8 86 bd a7 8f 1e 3d 58 a1 dc 3d 22 21 cc 3d
       -0.06590321 0.038711216 0.107729614 0.09967257

pose_encoder.encoder.0.bias f4 [128]
000000 2a 49 14 3c fe 97 df 3b ed cb 2c 3c a4 f8 69 3b
       0.009050647 0.006823539 0.010546667 0.003570118
000010 33 29 7d 3c a4 bd 37 3c 2a 6d 02 3c bb 0f 31 3c
       0.015451717 0.011214647 0.007960597 0.010806973
000020 37 15 35 3c c1 a7 b6 3b 02 94 33 3c cf c0 d9 3b
       0.011052421 0.005574197 0.010960581 0.006645299
000030 85 09 2c 3c 4b 31 37 3c ef 07 02 3c 75 35 20 3c
       0.0105003165 0.011181186 0.007936462 0.00977837
000040 de fd 12 3c 47 73 2c 3c 2e 32 2d 3c a0 17 71 3c
       0.0089716595 0.010525531 0.010571046 0.014715105
000050 94 a8 24 3c f8 f2 48 3c 03 45 50 3c 22 ef 12 3c
       0.010049958 0.0122649595 0.012711766 0.0089681465
000060 e0 0c 20 3c bc c1 14 3c ed 7c 69 3c 78 db 12 3c
       0.009768695 0.009079393 0.014250976 0.008963458
000070 76 88 f8 3b 25 d0 7e 3c 0d 6f 13 3c 0b e3 92 3b
       0.007584627 0.015552555 0.008998645 0.004482632
000080 c2 36 87 3c 66 4e 3d 3c e4 3d 2a 3c 7b cd 0f 3c
       0.016505603 0.011554336 0.010390732 0.008777018
000090 29 e2 18 3c 19 71 48 3b 12 28 3f 3c f8 5a 2f 3c
       0.0093312645 0.003058499 0.011667268 0.010702841
0000a0 1e 67 2b 3c fb f2 36 3c 8f 63 32 3c 71 2c 21 3c
       0.010461597 0.0111663295 0.010887994 0.009837256
0000b0 aa 1f fe 3b 76 30 c7 3b a5 fc 1f 3c 24 92 22 3c
       0.0077552395 0.006078775 0.009764825 0.009922538
0000c0 08 4d 3e 3c f3 a0 08 3c 0c 36 6c 3c 44 57 13 3c
       0.011615045 0.0083391545 0.014417183 0.008992974
0000d0 13 23 07 3c a6 1c 40 3c 11 82 1f 3c ab f0 f7 3b
       0.008248108 0.01172558 0.0097356 0.0075665317
0000e0 d2 40 33 3c 8e d0 71 3c 65 0d 22 3c 52 3d 3d 3c
       0.010940747 0.014759196 0.009890889 0.011550264
0000f0 a1 be 20 3c 5c 24 b3 3b e8 ae 25 3c 55 88 35 3c
       0.0098110745 0.005466981 0.010112502 0.011079867
000100 24 d9 22 3c 29 0b 1c 3c 1d b2 f4 3b b1 91 20 3c
       0.009939466 0.009524145 0.007467522 0.009800361
000110 2c eb 1a 3c a9 f3 33 3c cd 02 72 3c b3 b8 1a 3c
       0.009455483 0.010983386 0.014771176 0.00944345
000120 97 57 1e 3c 7a e9 20 3c e7 f1 f2 3b 0d fc e5 3b
       0.009664438 0.00982129 0.007414091 0.007018572
000130 50 0e 91 3b 72 5e 2d 3c 0e 9c 48 3c 7f 9d 14 3c
       0.004426755 0.0105816 0.012244238 0.009070753
000140 a8 9d 2a 3c 67 e0 03 3c 35 7c 31 3c e2 64 2f 3c
       0.010413565 0.008049107 0.010832836 0.010705205
000150 db 19 62 3c 5a 0b 35 3c 87 e5 28 3c b8 6c 15 3c
       0.01380011 0.01105007 0.01030863 0.009120159
000160 74 7d 53 3c f2 62 0e 3c de b4 fd 3b bd 21 43 3c
       0.012908328 0.008690583 0.0077425083 0.011909899
000170 61 4a 13 3c 46 d1 33 3c db 77 1f 3c 23 73 4c 3c
       0.008989901 0.010975188 0.009733166 0.012478623
000180 b3 16 e2 3b 97 e8 28 3c 53 c5 31 3c ae 35 00 3c
       0.0068996786 0.01030936 0.010850268 0.007825298
000190 25 e3 8a 3c 49 90 e7 3b 49 87 03 3c c5 23 43 3c
       0.016954014 0.0070667607 0.00802786 0.011910384
0001a0 02 4b 03 3c 83 0a d3 3b 09 f5 42 3c 35 ea a6 3b
       0.008013489 0.006440462 0.011899241 0.0050938376
0001b0 bc 19 34 3c 49 03 4b 3c 94 e5 0d 3c c1 b2 30 3c
       0.010992464 0.01239092 0.008660693 0.010784806
0001c0 40 e3 1b 3c 70 28 04 3c e4 d1 25 3c 28 27 2d 3c
       0.00951463 0.008066282 0.010120843 0.010568418
0001d0 eb 26 d7 3b 52 6d 23 3c d5 77 82 3c e3 52 29 3c
       0.0065659187 0.009974794 0.015926281 0.010334703
0001e0 cf 4b 14 3c f8 15 1c 3c 82 46 1e 3c b1 6e 84 3c
       0.009051277 0.009526722 0.009660365 0.016166063
0001f0 02 33 20 3c 27 34 73 3c 17 61 14 3c be d7 01 3c
       0.009777786 0.014843977 0.009056351 0.007924972

pose_encoder.encoder.2.weight f4 [128]
000000 ac 73 80 3f e8 46 80 3f 3d 66 7f 3f 33 5b 80 3f
       1.00353 1.0021639 0.9976538 1.0027832
000010 e5 03 7f 3f ab 45 80 3f d0 70 80 3f dc 35 80 3f
       0.9961532 1.0021261 1.0034428 1.0016437
000020 c4 e5 7f 3f 50 5b 80 3f 9c 31 80 3f 1f 57 7f 3f
       0.9995997 1.0027866 1.001514 0.9974231
000030 bb 70 7f 3f 8f 10 80 3f 6f 33 80 3f a0 3c 80 3f
       0.9978139 1.0005053 1.0015696 1.0018501
000040 39 16 80 3f bf b9 7f 3f 6b 0d 80 3f e8 e5 80 3f
       1.0006782 0.998928 1.0004095 1.0070162
000050 8e 1e 80 3f 6a 33 80 3f b1 e4 7f 3f 8a 09 80 3f
       1.0009325 1.001569 0.9995833 1.0002911
000060 68 7c 7f 3f f3 1f 80 3f 42 2e 81 3f a1 ab 7f 3f
       0.99799204 1.000975 1.0092242 0.9987126
000070 36 a3 80 3f b4 c9 7f 3f 27 46 7f 3f 03 e7 80 3f
       1.0049808 0.9991715 0.9971642 1.0070499
000080 84 34 7f 3f ee d7 80 3f b7 05 80 3f d6 9d 80 3f
       0.9968951 1.0065897 1.0001744 1.0048168
000090 92 e8 7f 3f 94 0b 80 3f 3f 95 80 3f 77 fd 7f 3f
       0.9996425 1.0003533 1.0045546 0.9999613
0000a0 ef 77 80 3f 45 17 81 3f 58 4b 80 3f db b7 7e 3f
       1.0036601 1.0085226 1.0022993 0.9949929
0000b0 94 78 80 3f 2c 00 81 3f 9b b5 80 3f d1 71 7e 3f
       1.0036798 1.0078177 1.0055422 0.9939242
0000c0 a7 13 80 3f 8f fd 7f 3f 03 65 7f 3f 63 cd 7e 3f
       1.0005997 0.99996275 0.99763507 0.99532145
0000d0 7b 5f 80 3f b2 37 80 3f 08 5a 80 3f 97 02 80 3f
       1.0029138 1.0016997 1.0027475 1.000079
0000e0 bb 5a 80 3f 7c e6 7f 3f b0 ce 80 3f 7c 47 7f 3f
       1.0027689 0.99961066 1.0063076 0.9971845
0000f0 22 8f 80 3f ea df 7f 3f 5a ae 7f 3f c5 60 7f 3f
       1.0043681 0.9995104 0.99875414 0.99757034
000100 de ce 7f 3f b3 84 7f 3f ac 3d 80 3f 1c bf 80 3f
       0.9992503 0.9981186 1.0018821 1.0058322
000110 8d 70 7f 3f 04 97 7f 3f 1d 4d 80 3f 0d 1c 7f 3f
       0.99781114 0.99839807 1.0023533 0.9965218
000120 64 74 7f 3f 90 39 80 3f 4d 67 80 3f b5 5d 80 3f
       0.99786973 1.0017567 1.0031525 1.0028597
000130 7c a0 7e 3f 27 22 80 3f b4 c2 7f 3f 5d 99 80 3f
       0.9946363 1.0010422 0.9990647 1.0046803
000140 8c 0f 80 3f 16 91 80 3f ab 06 80 3f bc 75 80 3f
       1.0004745 1.0044277 1.0002035 1.003593
000150 57 40 80 3f 15 b8 7f 3f 89 bd 80 3f 46 ab 80 3f
       1.0019635 0.9989026 1.0057842 1.0052269
000160 b1 67 80 3f a2 04 80 3f a2 8e 7f 3f de 91 80 3f
       1.0031644 1.0001414 0.99827015 1.0044515
000170 43 7e 80 3f b3 dc 7f 3f 5d b8 7e 3f 9c eb 7f 3f
       1.0038532 0.99946135 0.99500066 0.99968886
000180 7b 14 80 3f 77 7e 80 3f 37 18 80 3f 24 61 7f 3f
       1.000625 1.0038594 1.000739 0.997576
000190 70 60 80 3f 15 4c 80 3f 03 80 7f 3f 9f c1 80 3f
       1.002943 1.0023218 0.99804705 1.0059088
0001a0 f9 04 80 3f e6 66 7f 3f 8a b2 7f 3f 32 7d 7e 3f
       1.0001518 0.99766386 0.99881804 0.9940978
0001b0 e9 eb 80 3f ff 3d 80 3f c1 f1 7e 3f 13 65 80 3f
       1.0071994 1.001892 0.9958764 1.0030845
0001c0 7b 9e 80 3f f7 32 7f 3f 0c f4 7e 3f 1c 43 7e 3f
       1.0048364 0.9968714 0.99591136 0.9932115
0001d0 2b af 80 3f 94 0d 80 3f d7 b5 80 3f 65 65 7f 3f
       1.0053457 1.0004144 1.0055493 0.9976409
0001e0 8e b8 80 3f ec 74 7f 3f f8 71 7f 3f fb ba 7f 3f
       1.0056322 0.99787784 0.9978328 0.99894685
0001f0 e4 6d 80 3f 8e 10 80 3f fc 1f 80 3f e5 eb 80 3f
       1.0033536 1.0005052 1.0009761 1.0071989

pose_encoder.encoder.2.bias f4 [128]
000000 b3 ee c3 3a 9f c2 2a 3c f2 11 2d ba e6 1b 83 39
       0.0014948457 0.010422378 -0.00066021003 0.00025007053
000010 d6 8c e4 ba 6b 60 86 bb 2c a7 24 bb 66 6d bf 3b
       -0.0017436992 -0.0041008494 -0.0025124056 0.0058418987
000020 ef 20 ea ba b1 fb ee ba 29 30 0c b9 b2 85 40 3b
       -0.0017862598 -0.0018232969 -0.00013369381 0.0029376564
000030 b1 95 8b bb 0b 2f 29 bb f1 63 36 bb 89 0d 10 bb
       -0.004259788 -0.0025815393 -0.0027830566 -0.0021980724
000040 13 1a 03 3a 4d 19 1a 3b 1d b7 86 bb d0 14 42 39
       0.0005001139 0.0023513616 -0.0041111843 0.00018509035
000050 4b 4c 09 3a bc 07 41 ba 66 c0 4e bb b0 90 a7 38
       0.0005237504 -0.0007363518 -0.0031547784 7.990131e-05
000060 40 57 77 ba 2b 87 71 3b 3d 10 47 3b c8 4b e8 39
       -0.00094353035 0.0036854248 0.003037467 0.0004430695
000070 5e 79 e4 bb 15 94 46 39 96 e0 df 3a 76 79 3b bb
       -0.006972476 0.00018937916 0.0017080482 -0.0028606332
000080 7f d9 8f 3b 23 aa b5 ba 7a f5 bf 3b 8e 1c db b8
       0.004389941 -0.0013859909 0.0058581205 -0.000104480525
000090 66 fa 7c b8 2f 3d 91 ba 8b 02 4e 3b f2 32 b8 3a
       -6.0314684e-05 -0.0011080856 0.0031434621 0.0014053269
0000a0 7e 16 e5 3b 71 71 03 bb a1 0d 4e 3b 0c c4 f9 ba
       0.0069912067 -0.002005663 0.003144123 -0.0019055619
0000b0 e1 d8 87 ba aa 2f bc 3a 2f 52 0c 39 5e 94 14 3b
       -0.0010364318 0.0014357467 0.00013382056 0.0022671442
0000c0 fc 4c 97 ba 44 2b 82 bb 96 30 cd 3a 8f 30 88 3b
       -0.0011543329 -0.003972443 0.0015654739 0.0041561793
0000d0 b2 5a 73 ba f1 30 f4 3a 60 a6 b4 bb 2b bc 16 ba
       -0.0009283229 0.0018630308 -0.0055129975 -0.0005750085
0000e0 a3 3a 4a 3b 9c 91 75 39 f0 e2 e1 ba 78 4c db 3b
       0.0030857704 0.00023419264 -0.001723377 0.0066924654
0000f0 90 89 19 3b b0 94 c7 3a ba 6f af 3a c6 89 4b 3b
       0.002342794 0.0015226807 0.0013384738 0.0031057461
000100 3b f1 68 bb 7b 72 9d ba 2f 2c 16 3b b2 34 9d bb
       -0.0035544175 -0.0012012267 0.002291452 -0.0047975415
000110 57 00 29 bb 14 86 89 3b bd 5e 34 ba 99 f6 85 b9
       -0.0025787556 0.0041968916 -0.0006880572 -0.00025551466
000120 ab d1 68 ba 52 37 2a 3b b0 80 b8 3b df 2b d9 38
       -0.00088813406 0.0025972915 0.005630575 0.00010355538
000130 97 60 20 bb 56 73 b1 ba e0 67 29 ba 60 bc b6 3b
       -0.0024471635 -0.0013538401 -0.0006462317 0.0055766553
000140 f5 7a 54 3a d1 c4 83 bb 19 d5 44 3a 2e 2f 61 3b
       0.000810548 -0.004021265 0.00075085607 0.0034360397
000150 55 ab 88 3b 7b 18 15 bb b7 33 39 3b 89 63 31 3b
       0.004170815 -0.0022750187 0.0028259584 0.0027067384
000160 66 7b df 3a d6 dd 0a bb b5 a8 9b ba 50 05 23 3b
       0.0017050325 -0.0021189353 -0.001187584 0.0024874993
000170 9f bc fb b8 da 94 c0 ba 68 40 57 ba 10 a9 f4 b7
       -0.00012003746 -0.0014692799 -0.00082111964 -2.9165793e-05
000180 52 5a 3b 39 72 0a 64 3a 03 96 16 3a 4e bc 7a bb
       0.00017867357 0.0008699066 0.00057443994 -0.003825921
000190 e6 7f d1 bb 21 be 69 bb 1f 7e 28 bb cc 28 ea b9
       -0.0063934205 -0.0035666304 -0.002570994 -0.00044662354
0001a0 ee 19 88 bb 1a 78 5a ba df 6a c5 3b ef 99 2b bb
       -0.0041534817 -0.00083339366 0.006024703 -0.002618428
0001b0 dd ce 94 39 c0 09 0f 3a 2d 71 a7 bb b3 d2 b5 ba
       0.00028382885 0.000545647 -0.005109927 -0.0013871997
0001c0 13 89 34 3b a6 68 59 bb 46 0d e9 3a 5c a0 e3 3a
       0.0027547523 -0.0033173948 0.0017780445 0.0017366516
0001d0 eb 2a 5a b9 d4 34 d5 3a e5 b9 08 bb 80 7f df 3a
       -0.00020806088 0.0016266354 -0.0020862755 0.0017051548
0001e0 bd ad 95 b7 51 42 c0 3a 84 38 52 ba 49 6e 8e 3b
       -1.7843087e-05 0.0014668201 -0.0008019286 0.004346643
0001f0 fc 48 01 bb 2f e5 20 3b 14 c8 2e ba 05 10 4f ba
       -0.001972734 0.0024550667 -0.0006667387 -0.00078988104
